MFAN(
  (sub_mean): MeanShift(3, 3, kernel_size=(1, 1), stride=(1, 1))
  (add_mean): MeanShift(3, 3, kernel_size=(1, 1), stride=(1, 1))
  (head): Sequential(
    (0): Conv2d(3, 64, kernel_size=(3, 3), stride=(1, 1), padding=(1, 1))
  )
  (downsample): PixelUnShuffle(upscale_factor=2)
  (conv1): Conv2d(12, 64, kernel_size=(3, 3), stride=(1, 1), padding=(1, 1))
  (branch): Sequential(
    (0): MSRB(
      (conv_3_1): Conv2d(64, 64, kernel_size=(3, 3), stride=(1, 1), padding=(1, 1))
      (conv_3_2): Conv2d(128, 128, kernel_size=(3, 3), stride=(1, 1), padding=(1, 1))
      (conv_5_1): conv5(
        (0): Conv2d(64, 64, kernel_size=(3, 3), stride=(1, 1), padding=(1, 1))
        (1): PReLU(num_parameters=1)
        (2): Conv2d(64, 64, kernel_size=(3, 3), stride=(1, 1), padding=(1, 1))
      )
      (conv_5_2): conv5(
        (0): Conv2d(128, 128, kernel_size=(3, 3), stride=(1, 1), padding=(1, 1))
        (1): PReLU(num_parameters=1)
        (2): Conv2d(128, 128, kernel_size=(3, 3), stride=(1, 1), padding=(1, 1))
      )
      (confusion): Conv2d(256, 64, kernel_size=(1, 1), stride=(1, 1))
      (prelu): PReLU(num_parameters=1)
      (att): SpatialGate(
        (compress): ChannelPool()
        (s1): BasicBlock(
          (0): Conv2d(2, 1, kernel_size=(3, 3), stride=(1, 1), padding=(1, 1), bias=False)
          (1): BatchNorm2d(1, eps=1e-05, momentum=0.1, affine=True, track_running_stats=True)
        )
        (s2): BasicBlock(
          (0): Conv2d(2, 1, kernel_size=(5, 5), stride=(1, 1), padding=(2, 2), bias=False)
          (1): BatchNorm2d(1, eps=1e-05, momentum=0.1, affine=True, track_running_stats=True)
        )
        (s3): BasicBlock(
          (0): Conv2d(2, 1, kernel_size=(7, 7), stride=(1, 1), padding=(3, 3), bias=False)
          (1): BatchNorm2d(1, eps=1e-05, momentum=0.1, affine=True, track_running_stats=True)
        )
        (s4): BasicBlock(
          (0): Conv2d(3, 1, kernel_size=(1, 1), stride=(1, 1), bias=False)
        )
        (sig): Sigmoid()
      )
    )
    (1): MSRB(
      (conv_3_1): Conv2d(64, 64, kernel_size=(3, 3), stride=(1, 1), padding=(1, 1))
      (conv_3_2): Conv2d(128, 128, kernel_size=(3, 3), stride=(1, 1), padding=(1, 1))
      (conv_5_1): conv5(
        (0): Conv2d(64, 64, kernel_size=(3, 3), stride=(1, 1), padding=(1, 1))
        (1): PReLU(num_parameters=1)
        (2): Conv2d(64, 64, kernel_size=(3, 3), stride=(1, 1), padding=(1, 1))
      )
      (conv_5_2): conv5(
        (0): Conv2d(128, 128, kernel_size=(3, 3), stride=(1, 1), padding=(1, 1))
        (1): PReLU(num_parameters=1)
        (2): Conv2d(128, 128, kernel_size=(3, 3), stride=(1, 1), padding=(1, 1))
      )
      (confusion): Conv2d(256, 64, kernel_size=(1, 1), stride=(1, 1))
      (prelu): PReLU(num_parameters=1)
      (att): SpatialGate(
        (compress): ChannelPool()
        (s1): BasicBlock(
          (0): Conv2d(2, 1, kernel_size=(3, 3), stride=(1, 1), padding=(1, 1), bias=False)
          (1): BatchNorm2d(1, eps=1e-05, momentum=0.1, affine=True, track_running_stats=True)
        )
        (s2): BasicBlock(
          (0): Conv2d(2, 1, kernel_size=(5, 5), stride=(1, 1), padding=(2, 2), bias=False)
          (1): BatchNorm2d(1, eps=1e-05, momentum=0.1, affine=True, track_running_stats=True)
        )
        (s3): BasicBlock(
          (0): Conv2d(2, 1, kernel_size=(7, 7), stride=(1, 1), padding=(3, 3), bias=False)
          (1): BatchNorm2d(1, eps=1e-05, momentum=0.1, affine=True, track_running_stats=True)
        )
        (s4): BasicBlock(
          (0): Conv2d(3, 1, kernel_size=(1, 1), stride=(1, 1), bias=False)
        )
        (sig): Sigmoid()
      )
    )
    (2): MSRB(
      (conv_3_1): Conv2d(64, 64, kernel_size=(3, 3), stride=(1, 1), padding=(1, 1))
      (conv_3_2): Conv2d(128, 128, kernel_size=(3, 3), stride=(1, 1), padding=(1, 1))
      (conv_5_1): conv5(
        (0): Conv2d(64, 64, kernel_size=(3, 3), stride=(1, 1), padding=(1, 1))
        (1): PReLU(num_parameters=1)
        (2): Conv2d(64, 64, kernel_size=(3, 3), stride=(1, 1), padding=(1, 1))
      )
      (conv_5_2): conv5(
        (0): Conv2d(128, 128, kernel_size=(3, 3), stride=(1, 1), padding=(1, 1))
        (1): PReLU(num_parameters=1)
        (2): Conv2d(128, 128, kernel_size=(3, 3), stride=(1, 1), padding=(1, 1))
      )
      (confusion): Conv2d(256, 64, kernel_size=(1, 1), stride=(1, 1))
      (prelu): PReLU(num_parameters=1)
      (att): SpatialGate(
        (compress): ChannelPool()
        (s1): BasicBlock(
          (0): Conv2d(2, 1, kernel_size=(3, 3), stride=(1, 1), padding=(1, 1), bias=False)
          (1): BatchNorm2d(1, eps=1e-05, momentum=0.1, affine=True, track_running_stats=True)
        )
        (s2): BasicBlock(
          (0): Conv2d(2, 1, kernel_size=(5, 5), stride=(1, 1), padding=(2, 2), bias=False)
          (1): BatchNorm2d(1, eps=1e-05, momentum=0.1, affine=True, track_running_stats=True)
        )
        (s3): BasicBlock(
          (0): Conv2d(2, 1, kernel_size=(7, 7), stride=(1, 1), padding=(3, 3), bias=False)
          (1): BatchNorm2d(1, eps=1e-05, momentum=0.1, affine=True, track_running_stats=True)
        )
        (s4): BasicBlock(
          (0): Conv2d(3, 1, kernel_size=(1, 1), stride=(1, 1), bias=False)
        )
        (sig): Sigmoid()
      )
    )
    (3): MSRB(
      (conv_3_1): Conv2d(64, 64, kernel_size=(3, 3), stride=(1, 1), padding=(1, 1))
      (conv_3_2): Conv2d(128, 128, kernel_size=(3, 3), stride=(1, 1), padding=(1, 1))
      (conv_5_1): conv5(
        (0): Conv2d(64, 64, kernel_size=(3, 3), stride=(1, 1), padding=(1, 1))
        (1): PReLU(num_parameters=1)
        (2): Conv2d(64, 64, kernel_size=(3, 3), stride=(1, 1), padding=(1, 1))
      )
      (conv_5_2): conv5(
        (0): Conv2d(128, 128, kernel_size=(3, 3), stride=(1, 1), padding=(1, 1))
        (1): PReLU(num_parameters=1)
        (2): Conv2d(128, 128, kernel_size=(3, 3), stride=(1, 1), padding=(1, 1))
      )
      (confusion): Conv2d(256, 64, kernel_size=(1, 1), stride=(1, 1))
      (prelu): PReLU(num_parameters=1)
      (att): SpatialGate(
        (compress): ChannelPool()
        (s1): BasicBlock(
          (0): Conv2d(2, 1, kernel_size=(3, 3), stride=(1, 1), padding=(1, 1), bias=False)
          (1): BatchNorm2d(1, eps=1e-05, momentum=0.1, affine=True, track_running_stats=True)
        )
        (s2): BasicBlock(
          (0): Conv2d(2, 1, kernel_size=(5, 5), stride=(1, 1), padding=(2, 2), bias=False)
          (1): BatchNorm2d(1, eps=1e-05, momentum=0.1, affine=True, track_running_stats=True)
        )
        (s3): BasicBlock(
          (0): Conv2d(2, 1, kernel_size=(7, 7), stride=(1, 1), padding=(3, 3), bias=False)
          (1): BatchNorm2d(1, eps=1e-05, momentum=0.1, affine=True, track_running_stats=True)
        )
        (s4): BasicBlock(
          (0): Conv2d(3, 1, kernel_size=(1, 1), stride=(1, 1), bias=False)
        )
        (sig): Sigmoid()
      )
    )
    (4): MSRB(
      (conv_3_1): Conv2d(64, 64, kernel_size=(3, 3), stride=(1, 1), padding=(1, 1))
      (conv_3_2): Conv2d(128, 128, kernel_size=(3, 3), stride=(1, 1), padding=(1, 1))
      (conv_5_1): conv5(
        (0): Conv2d(64, 64, kernel_size=(3, 3), stride=(1, 1), padding=(1, 1))
        (1): PReLU(num_parameters=1)
        (2): Conv2d(64, 64, kernel_size=(3, 3), stride=(1, 1), padding=(1, 1))
      )
      (conv_5_2): conv5(
        (0): Conv2d(128, 128, kernel_size=(3, 3), stride=(1, 1), padding=(1, 1))
        (1): PReLU(num_parameters=1)
        (2): Conv2d(128, 128, kernel_size=(3, 3), stride=(1, 1), padding=(1, 1))
      )
      (confusion): Conv2d(256, 64, kernel_size=(1, 1), stride=(1, 1))
      (prelu): PReLU(num_parameters=1)
      (att): SpatialGate(
        (compress): ChannelPool()
        (s1): BasicBlock(
          (0): Conv2d(2, 1, kernel_size=(3, 3), stride=(1, 1), padding=(1, 1), bias=False)
          (1): BatchNorm2d(1, eps=1e-05, momentum=0.1, affine=True, track_running_stats=True)
        )
        (s2): BasicBlock(
          (0): Conv2d(2, 1, kernel_size=(5, 5), stride=(1, 1), padding=(2, 2), bias=False)
          (1): BatchNorm2d(1, eps=1e-05, momentum=0.1, affine=True, track_running_stats=True)
        )
        (s3): BasicBlock(
          (0): Conv2d(2, 1, kernel_size=(7, 7), stride=(1, 1), padding=(3, 3), bias=False)
          (1): BatchNorm2d(1, eps=1e-05, momentum=0.1, affine=True, track_running_stats=True)
        )
        (s4): BasicBlock(
          (0): Conv2d(3, 1, kernel_size=(1, 1), stride=(1, 1), bias=False)
        )
        (sig): Sigmoid()
      )
    )
    (5): MSRB(
      (conv_3_1): Conv2d(64, 64, kernel_size=(3, 3), stride=(1, 1), padding=(1, 1))
      (conv_3_2): Conv2d(128, 128, kernel_size=(3, 3), stride=(1, 1), padding=(1, 1))
      (conv_5_1): conv5(
        (0): Conv2d(64, 64, kernel_size=(3, 3), stride=(1, 1), padding=(1, 1))
        (1): PReLU(num_parameters=1)
        (2): Conv2d(64, 64, kernel_size=(3, 3), stride=(1, 1), padding=(1, 1))
      )
      (conv_5_2): conv5(
        (0): Conv2d(128, 128, kernel_size=(3, 3), stride=(1, 1), padding=(1, 1))
        (1): PReLU(num_parameters=1)
        (2): Conv2d(128, 128, kernel_size=(3, 3), stride=(1, 1), padding=(1, 1))
      )
      (confusion): Conv2d(256, 64, kernel_size=(1, 1), stride=(1, 1))
      (prelu): PReLU(num_parameters=1)
      (att): SpatialGate(
        (compress): ChannelPool()
        (s1): BasicBlock(
          (0): Conv2d(2, 1, kernel_size=(3, 3), stride=(1, 1), padding=(1, 1), bias=False)
          (1): BatchNorm2d(1, eps=1e-05, momentum=0.1, affine=True, track_running_stats=True)
        )
        (s2): BasicBlock(
          (0): Conv2d(2, 1, kernel_size=(5, 5), stride=(1, 1), padding=(2, 2), bias=False)
          (1): BatchNorm2d(1, eps=1e-05, momentum=0.1, affine=True, track_running_stats=True)
        )
        (s3): BasicBlock(
          (0): Conv2d(2, 1, kernel_size=(7, 7), stride=(1, 1), padding=(3, 3), bias=False)
          (1): BatchNorm2d(1, eps=1e-05, momentum=0.1, affine=True, track_running_stats=True)
        )
        (s4): BasicBlock(
          (0): Conv2d(3, 1, kernel_size=(1, 1), stride=(1, 1), bias=False)
        )
        (sig): Sigmoid()
      )
    )
  )
  (branch_down): Sequential(
    (0): ResBlock(
      (body): Sequential(
        (0): Conv2d(64, 64, kernel_size=(3, 3), stride=(1, 1), padding=(1, 1))
        (1): PReLU(num_parameters=1)
        (2): Conv2d(64, 64, kernel_size=(3, 3), stride=(1, 1), padding=(1, 1))
      )
    )
    (1): ResBlock(
      (body): Sequential(
        (0): Conv2d(64, 64, kernel_size=(3, 3), stride=(1, 1), padding=(1, 1))
        (1): PReLU(num_parameters=1)
        (2): Conv2d(64, 64, kernel_size=(3, 3), stride=(1, 1), padding=(1, 1))
      )
    )
    (2): ResBlock(
      (body): Sequential(
        (0): Conv2d(64, 64, kernel_size=(3, 3), stride=(1, 1), padding=(1, 1))
        (1): PReLU(num_parameters=1)
        (2): Conv2d(64, 64, kernel_size=(3, 3), stride=(1, 1), padding=(1, 1))
      )
    )
    (3): ResBlock(
      (body): Sequential(
        (0): Conv2d(64, 64, kernel_size=(3, 3), stride=(1, 1), padding=(1, 1))
        (1): PReLU(num_parameters=1)
        (2): Conv2d(64, 64, kernel_size=(3, 3), stride=(1, 1), padding=(1, 1))
      )
    )
    (4): ResBlock(
      (body): Sequential(
        (0): Conv2d(64, 64, kernel_size=(3, 3), stride=(1, 1), padding=(1, 1))
        (1): PReLU(num_parameters=1)
        (2): Conv2d(64, 64, kernel_size=(3, 3), stride=(1, 1), padding=(1, 1))
      )
    )
    (5): ResBlock(
      (body): Sequential(
        (0): Conv2d(64, 64, kernel_size=(3, 3), stride=(1, 1), padding=(1, 1))
        (1): PReLU(num_parameters=1)
        (2): Conv2d(64, 64, kernel_size=(3, 3), stride=(1, 1), padding=(1, 1))
      )
    )
    (6): ResBlock(
      (body): Sequential(
        (0): Conv2d(64, 64, kernel_size=(3, 3), stride=(1, 1), padding=(1, 1))
        (1): PReLU(num_parameters=1)
        (2): Conv2d(64, 64, kernel_size=(3, 3), stride=(1, 1), padding=(1, 1))
      )
    )
    (7): ResBlock(
      (body): Sequential(
        (0): Conv2d(64, 64, kernel_size=(3, 3), stride=(1, 1), padding=(1, 1))
        (1): PReLU(num_parameters=1)
        (2): Conv2d(64, 64, kernel_size=(3, 3), stride=(1, 1), padding=(1, 1))
      )
    )
    (8): ResBlock(
      (body): Sequential(
        (0): Conv2d(64, 64, kernel_size=(3, 3), stride=(1, 1), padding=(1, 1))
        (1): PReLU(num_parameters=1)
        (2): Conv2d(64, 64, kernel_size=(3, 3), stride=(1, 1), padding=(1, 1))
      )
    )
    (9): ResBlock(
      (body): Sequential(
        (0): Conv2d(64, 64, kernel_size=(3, 3), stride=(1, 1), padding=(1, 1))
        (1): PReLU(num_parameters=1)
        (2): Conv2d(64, 64, kernel_size=(3, 3), stride=(1, 1), padding=(1, 1))
      )
    )
    (10): ResBlock(
      (body): Sequential(
        (0): Conv2d(64, 64, kernel_size=(3, 3), stride=(1, 1), padding=(1, 1))
        (1): PReLU(num_parameters=1)
        (2): Conv2d(64, 64, kernel_size=(3, 3), stride=(1, 1), padding=(1, 1))
      )
    )
    (11): ResBlock(
      (body): Sequential(
        (0): Conv2d(64, 64, kernel_size=(3, 3), stride=(1, 1), padding=(1, 1))
        (1): PReLU(num_parameters=1)
        (2): Conv2d(64, 64, kernel_size=(3, 3), stride=(1, 1), padding=(1, 1))
      )
    )
  )
  (upsample): Upsampler(
    (0): Conv2d(64, 256, kernel_size=(3, 3), stride=(True, True), padding=(1, 1))
    (1): PixelShuffle(upscale_factor=2)
  )
  (confusion): Conv2d(192, 64, kernel_size=(1, 1), stride=(1, 1))
  (tail): Sequential(
    (0): Conv2d(64, 3, kernel_size=(3, 3), stride=(1, 1), padding=(1, 1))
  )
)
[Epoch 1]	Learning rate: 1.00e-4
[3200/32000]	[L1: 12.5625]	41.2+48.3s
[6400/32000]	[L1: 9.3753]	42.4+0.0s
[9600/32000]	[L1: 8.0100]	42.2+0.0s
[12800/32000]	[L1: 7.2528]	42.2+0.0s
[16000/32000]	[L1: 6.7659]	42.1+0.0s
[19200/32000]	[L1: 6.4277]	42.2+0.0s
[22400/32000]	[L1: 6.1947]	42.1+0.0s
[25600/32000]	[L1: 6.0002]	42.3+0.0s
[28800/32000]	[L1: 5.8267]	42.0+0.0s
…
